…
.59it/s] 98%|â–ˆâ–ˆâ–ˆâ–ˆâ–ˆâ–ˆâ–ˆâ–ˆâ–ˆâ–Š| 5933/6040 [00:10<00:00, 548.10it/s] 99%|â–ˆâ–ˆâ–ˆâ–ˆâ–ˆâ–ˆâ–ˆâ–ˆâ–ˆâ–‰| 5988/6040 [00:11<00:00, 547.80it/s]100%|â–ˆâ–ˆâ–ˆâ–ˆâ–ˆâ–ˆâ–ˆâ–ˆâ–ˆâ–ˆ| 6040/6040 [00:11<00:00, 543.14it/s]
/root/anaconda3/envs/uibi/lib/python3.8/site-packages/dgl/heterograph.py:72: DGLWarning: Recommend creating graphs by `dgl.graph(data)` instead of `dgl.DGLGraph(data)`.
  dgl_warning('Recommend creating graphs by `dgl.graph(data)`'
11 Apr 15:15    INFO  UIBiSage(
  (I2U_SAGE): ModuleList(
    (0): SAGEConv(
      (feat_drop): Dropout(p=0.0, inplace=False)
      (fc_self): Linear(in_features=256, out_features=64, bias=False)
      (fc_neigh): Linear(in_features=256, out_features=64, bias=False)
    )
  )
  (U2I_SAGE): ModuleList(
    (0): SAGEConv(
      (feat_drop): Dropout(p=0.0, inplace=False)
      (fc_self): Linear(in_features=256, out_features=64, bias=False)
      (fc_neigh): Linear(in_features=256, out_features=64, bias=False)
    )
  )
  (user_embedding): Embedding(6041, 256, padding_idx=0)
  (item_embedding): Embedding(3417, 256, padding_idx=0)
  (position_embedding): Embedding(200, 64)
  (s_transformer_modules): ModuleList(
    (0): TransformerLayer(
      (multi_head_attention): MultiHeadAttention(
        (query): Linear(in_features=64, out_features=64, bias=True)
        (key): Linear(in_features=64, out_features=64, bias=True)
        (value): Linear(in_features=64, out_features=64, bias=True)
        (softmax): Softmax(dim=-1)
        (attn_dropout): Dropout(p=0.5, inplace=False)
        (dense): Linear(in_features=64, out_features=64, bias=True)
        (LayerNorm): LayerNorm((64,), eps=1e-12, elementwise_affine=True)
        (out_dropout): Dropout(p=0.5, inplace=False)
      )
      (feed_forward): FeedForward(
        (dense_1): Linear(in_features=64, out_features=256, bias=True)
        (dense_2): Linear(in_features=256, out_features=64, bias=True)
        (LayerNorm): LayerNorm((64,), eps=1e-12, elementwise_affine=True)
        (dropout): Dropout(p=0.5, inplace=False)
      )
    )
    (1): TransformerLayer(
      (multi_head_attention): MultiHeadAttention(
        (query): Linear(in_features=64, out_features=64, bias=True)
        (key): Linear(in_features=64, out_features=64, bias=True)
        (value): Linear(in_features=64, out_features=64, bias=True)
        (softmax): Softmax(dim=-1)
        (attn_dropout): Dropout(p=0.5, inplace=False)
        (dense): Linear(in_features=64, out_features=64, bias=True)
        (LayerNorm): LayerNorm((64,), eps=1e-12, elementwise_affine=True)
        (out_dropout): Dropout(p=0.5, inplace=False)
      )
      (feed_forward): FeedForward(
        (dense_1): Linear(in_features=64, out_features=256, bias=True)
        (dense_2): Linear(in_features=256, out_features=64, bias=True)
        (LayerNorm): LayerNorm((64,), eps=1e-12, elementwise_affine=True)
        (dropout): Dropout(p=0.5, inplace=False)
      )
    )
  )
  (d_transformer_modules): ModuleList(
    (0): TransformerLayer(
      (multi_head_attention): MultiHeadAttention(
        (query): Linear(in_features=64, out_features=64, bias=True)
        (key): Linear(in_features=64, out_features=64, bias=True)
        (value): Linear(in_features=64, out_features=64, bias=True)
        (softmax): Softmax(dim=-1)
        (attn_dropout): Dropout(p=0.5, inplace=False)
        (dense): Linear(in_features=64, out_features=64, bias=True)
        (LayerNorm): LayerNorm((64,), eps=1e-12, elementwise_affine=True)
        (out_dropout): Dropout(p=0.5, inplace=False)
      )
      (feed_forward): FeedForward(
        (dense_1): Linear(in_features=64, out_features=256, bias=True)
        (dense_2): Linear(in_features=256, out_features=64, bias=True)
        (LayerNorm): LayerNorm((64,), eps=1e-12, elementwise_affine=True)
        (dropout): Dropout(p=0.5, inplace=False)
      )
    )
    (1): TransformerLayer(
      (multi_head_attention): MultiHeadAttention(
        (query): Linear(in_features=64, out_features=64, bias=True)
        (key): Linear(in_features=64, out_features=64, bias=True)
        (value): Linear(in_features=64, out_features=64, bias=True)
        (softmax): Softmax(dim=-1)
        (attn_dropout): Dropout(p=0.5, inplace=False)
        (dense): Linear(in_features=64, out_features=64, bias=True)
        (LayerNorm): LayerNorm((64,), eps=1e-12, elementwise_affine=True)
        (out_dropout): Dropout(p=0.5, inplace=False)
      )
      (feed_forward): FeedForward(
        (dense_1): Linear(in_features=64, out_features=256, bias=True)
        (dense_2): Linear(in_features=256, out_features=64, bias=True)
        (LayerNorm): LayerNorm((64,), eps=1e-12, elementwise_affine=True)
        (dropout): Dropout(p=0.5, inplace=False)
      )
    )
  )
  (LayerNorm): LayerNorm((64,), eps=1e-12, elementwise_affine=True)
  (dropout): Dropout(p=0.5, inplace=False)
  (loss_fct): BPRLoss()
)
Trainable parameters: 2699776
wandb: Currently logged in as: unist-dm-lab (use `wandb login --relogin` to force relogin)
wandb: Tracking run with wandb version 0.12.14
wandb: Run data is saved locally in /data/notebook/RecBole/wandb/run-20220411_151506-2vc0eou8
wandb: Run `wandb offline` to turn off syncing.
…
